…
ng unpickling. Arbitrary objects will no longer be allowed to be loaded via this mode unless they are explicitly allowlisted by the user via `torch.serialization.add_safe_globals`. We recommend you start setting `weights_only=True` for any use case where you don't have full control of the loaded file. Please open an issue on GitHub for any issues related to this experimental feature.
  ckpt = torch.load(weights, map_location=device)  # load checkpoint

                 from  n    params  module                                  arguments                     
  0                -1  1      1958  models.common.MF                        [3]                           
  1                -1  1       704  models.common.DWConv                    [64, 64, 3, 2]                
  2                -1  1     20864  models.common.C2f                       [64, 64, 1, True]             
  3                -1  1      1408  models.common.DWConv                    [64, 128, 3, 2]               
  4                -1  1    132096  models.common.C2f                       [128, 128, 2, True]           
  5                -1  1      2816  models.common.DWConv                    [128, 256, 3, 2]              
  6                -1  1    526336  models.common.C2f                       [256, 256, 2, True]           
  7                -1  1      5632  models.common.DWConv                    [256, 512, 3, 2]              
  8                -1  1   1313792  models.common.C2f                       [512, 512, 1, True]           
  9                -1  1    656896  models.common.SPPF                      [512, 512, 5]                 
 10                -1  1         0  torch.nn.modules.upsampling.Upsample    [None, 2, 'nearest']          
 11           [-1, 6]  1         0  models.common.Concat                    [1]                           
 12                -1  1    460288  models.common.C2f                       [768, 256, 1]                 
 13                -1  1         0  torch.nn.modules.upsampling.Upsample    [None, 2, 'nearest']          
 14           [-1, 4]  1         0  models.common.Concat                    [1]                           
 15                -1  1    115456  models.common.C2f                       [384, 128, 1]                 
 16              [15]  1      2709  models.SRyolo.Detect                    [2, [[10, 13, 16, 30, 33, 23]], [128]]
/home/crh/anaconda3/envs/SuperYolo_py38/lib/python3.8/site-packages/torch/functional.py:513: UserWarning: torch.meshgrid: in an upcoming release, it will be required to pass the indexing argument. (Triggered internally at ../aten/src/ATen/native/TensorShape.cpp:3609.)
…
