…
ng unpickling. Arbitrary objects will no longer be allowed to be loaded via this mode unless they are explicitly allowlisted by the user via `torch.serialization.add_safe_globals`. We recommend you start setting `weights_only=True` for any use case where you don't have full control of the loaded file. Please open an issue on GitHub for any issues related to this experimental feature.
  ckpt = torch.load(weights, map_location=device)  # load checkpoint

                 from  n    params  module                                  arguments                     
  0                -1  1      1962  models.common.RIMF                      [3]                           
  1                -1  1       704  models.common.DWConv                    [64, 64, 3, 2]                
  2                -1  1     74496  models.common.C2f                       [64, 128, 1, False, 1]        
  3                -1  1      1408  models.common.DWConv                    [128, 128, 3, 2]              
  4                -1  1    296448  models.common.C2f                       [128, 256, 1, False, 1]       
  5                -1  1      2816  models.common.DWConv                    [256, 256, 3, 2]              
  6                -1  1    280576  models.common.C3k2                      [256, 256, 1, True]           
  7                -1  1      5632  models.common.DWConv                    [256, 512, 3, 2]              
  8                -1  1   1118208  models.common.C3k2                      [512, 512, 1, True]           
  9                -1  1    656896  models.common.SPPF                      [512, 512, 5]                 
 10                -1  1    990976  models.common.C2PSA                     [512, 512]                    
 11                -1  1         0  torch.nn.modules.upsampling.Upsample    [None, 2, 'nearest']          
 12           [-1, 6]  1         0  models.common.Concat                    [1]                           
 13                -1  1    378240  models.common.C3k2                      [768, 256, 1, False]          
 14                -1  1         0  torch.nn.modules.upsampling.Upsample    [None, 2, 'nearest']          
 15           [-1, 4]  1         0  models.common.Concat                    [1]                           
 16                -1  1    111296  models.common.C3k2                      [512, 128, 1, False]          
 17                -1  1      1408  models.common.DWConv                    [128, 128, 3, 2]              
 18          [-1, 13]  1         0  models.common.Concat                    [1]                           
 19                -1  1    361984  models.common.C2f                       [384, 256, 1, False]          
 20                -1  1      2816  models.common.DWConv                    [256, 256, 3, 2]              
 21          [-1, 10]  1         0  models.common.Concat                    [1]                           
 22                -1  1   1444864  models.common.C2f                       [768, 512, 1, True]           
 23      [16, 19, 22]  1   1782732  models.SRyolo.v11Detect                 [1, [[10, 13, 16, 30, 33, 23], [30, 61, 62, 45, 59, 119], [116, 90, 156, 198, 373, 326]], [128, 256, 512]]
[W1223 14:38:42.203524543 NNPACK.cpp:61] Could not initialize NNPACK! Reason: Unsupported hardware.
/home/crh/anaconda3/envs/superyolo_py38/lib/python3.8/site-packages/torch/functional.py:513: UserWarning: torch.meshgrid: in an upcoming release, it will be required to pass the indexing argument. (Triggered internally at ../aten/src/ATen/native/TensorShape.cpp:3609.)
…
